assignment-2-dcarzenope-main/ass_2.pt (torch, 281887 bytes, 4 tensors)

weight f4 [88, 784]
0.0073609566 0.029716378 -0.014779832 -0.016535778 0.02077029 0.02466712 -0.0244546 -0.004042106
-0.015486569 -0.012182768 -0.027877843 -0.015191437 0.004053546 -0.014792154 -0.022195319 -0.015335642
0.03554685 -0.01887365 0.0031460184 0.015998347 -0.028325941 0.035648383 0.021097662 0.035685796
0.01894942 0.0039926386 0.02529284 0.034168493 0.030143952 0.018019497 0.0152482055 0.00013428075
-0.028310696 0.0028815807 -0.0044798083 -0.02224042 0.00080607226 -0.06434047 -0.07123237 -0.021080358
-0.11057708 -0.1353854 -0.09763049 0.016949622 0.01101359 0.0302957 -0.027795525 -0.034232896
-0.014385743 0.016523162 -0.029943371 -0.007348955 0.03335498 -0.010120857 -0.011470783 0.005383973
-0.033873983 0.026050858 0.002072475 -0.04812266 -0.09650957 -0.068566844 -0.027431808 -0.03957111
0.076558754 0.17172071 0.16120505 0.06787168 -0.0069954703 -0.08041312 -0.16172497 -0.055331048
0.15833275 0.23306543 0.27860174 0.2894752 0.21843627 0.07820365 0.1005165 0.084372334
0.005369356 0.011002631 -0.031255893 -0.023498217 -0.026352905 0.025396178 0.0043372866 -0.018081054
0.09422215 0.099073924 0.187508 0.30505225 0.24986435 0.23701993 0.117280856 -0.14636572
0.01890361 0.030022638 0.024752874 0.12353857 0.010984207 -0.07347138 -0.06226374 -0.08731673
-0.05094834 -0.06469894 -0.10536538 -0.0797682 0.061083015 -0.17269246 0.00410573 0.016100744
0.032293092 -0.051652197 -0.21119979 -0.2709141 -0.14587127 0.06558401 0.1569854 0.18375613
0.18611203 0.23646809 0.22451392 0.124253355 0.05978873 -0.07313899 -0.025008306 0.122996226
0.098468624 0.03652699 0.07436977 -0.044881325 -0.023312092 0.039910078 -0.012314974 -0.08656079
0.058403715 0.24064387 0.19675632 0.0052628773 -0.022855211 0.0014280946 -0.24573961 -0.1258052
-0.15769234 0.062494602 -0.017781269 -0.06051901 0.025908833 0.09193835 0.2304732 0.27415895
0.07883017 0.039874032 0.0030791236 0.023521448 0.07414973 0.10239854 0.06945898 -0.013988667
0.053742968 -0.068877906 -0.05437113 -0.01843934 -0.10556665 0.22192511 0.09902572 0.109663
0.0054977494 0.0068998802 0.08547567 0.0370112 0.050309718 0.08290203 0.058187507 0.01162291
0.07417293 0.033487774 0.17861435 0.1325562 -0.038554907 0.018143645 0.032324787 -0.006478671
0.03476431 -0.0073855417 0.022083461 0.03807207 0.1380547 0.090354875 0.051927235 0.040544875
0.23242855 0.53663146 0.3635476 0.13702013 -0.01862125 -0.020141082 -0.061561003 -0.10929184
-0.018915374 0.055894945 0.008976822 -0.020841898 0.07630403 -0.03500586 0.023057727 0.05049263
-0.003797496 -0.058331124 0.085214764 -0.076998964 0.08830715 0.08121169 -0.005287573 0.09201034
0.21199062 0.12963058 0.07466468 0.124869645 0.12824963 0.41752508 0.31346738 0.047598854
-0.03311171 0.057361983 -0.19643626 -0.32942957 -0.078780465 0.049601857 -0.01804271 -0.0517092
0.0911775 0.0058555724 0.035580292 0.07745378 -0.01352957 -0.11366375 -0.036685616 -0.04150989
-0.08197971 -0.022534255 -0.016903074 0.06260033 0.11279824 0.08690555 0.0762907 0.09240934
0.052316625 0.038541194 0.25416157 0.022146333 -0.078758836 0.03382458 -0.26276454 -0.32429513
00000000: 2e34 f13b c36f f33c 1c27 72bc 0a76 87bc
00000010: 7526 aa3c b312 ca3c 0355 c8bc a573 84bb
00000020: 61bb 7dbc 3c9a 47bc 1360 e4bc 81e5 78bc
00000030: 9cd3 843b ca5a 72bc f5d2 b5bc 5842 7bbc
00000040: 9399 113d ea9c 9abc 6e2d 4e3b f70e 833c
00000050: ce0b e8bc 0a04 123d 01d5 ac3c 452b 123d
00000060: d03b 9b3c aed4 823b ee32 cf3c 43f4 0b3d
00000070: 73f0 f63c a09d 933c 9cd3 793c b7cd 0c39
00000080: d5eb e7bc e7d8 3c3b 5bcb 92bb 8b31 b6bc
00000090: 984e 533a f0c4 83bd 47e2 91bd b7b0 acbc
000000a0: 3c76 e2bd 78a2 0abe 7ff2 c7bd efd9 8a3c
000000b0: 5872 343c b02e f83c 71b3 e3bc cb37 0cbd
000000c0: 2eb2 6bbc 955b 873c cd4b f5bc 81cf f0bb
000000d0: 3b9f 083d f3d1 25bc f3ef 3bbc 0a6c b03b
000000e0: 72bf 0abd 9c68 d53c 5cd2 073b 441c 45bd
000000f0: cfa6 c5bd c66c 8cbd acb8 e0bc 5115 22bd
00000100: d6ca 9c3d 8ed7 2f3e f012 253e 4f00 8b3d
00000110: 423a e5bb a2af a4bd 3b9b 25be cfa2 62bd
00000120: fb21 223e b4a8 6e3e e3a4 8e3e 1836 943e
00000130: c2ad 5f3e 3c29 a03d 98db cd3d 67cb ac3d
00000140: 6cf1 af3b 6144 343c 2e06 00bd 557f c0bc
00000150: 0ce2 d7bc a50b d03c cc1f 8e3b b81e 94bc
00000160: 8bf7 c03d 45e7 ca3d 1902 403e cf2f 9c3e
00000170: 71dc 7f3e 5ab5 723e f230 f03d e5e0 15be
00000180: bedb 9a3c 09f2 f53c 8ac6 ca3c ca01 fd3d
00000190: 1af7 333c 2a78 96bd 4308 7fbd 1dd3 b2bd
000001a0: 35af 50bd e180 84bd cec9 d7bd 835d a3bd
000001b0: 2f32 7a3d 4bd6 30be 5c89 863b b5e5 833c
000001c0: c345 043d 4191 53bd c244 58be 41b5 8abe
000001d0: 475f 15be e950 863d c8c0 203e 912a 3c3e
000001e0: 2794 3e3e b124 723e fae6 653e 8b78 fe3d
000001f0: 07e5 743d e5c9 95bd 38de ccbc 72e5 fb3d
00000200: eba9 c93d 539d 153d 2e4f 983d 7bd5 37bd
00000210: 00f9 bebc c078 233d bfc4 49bc c946 b1bd
00000220: bc38 6f3d 596b 763e 7d7a 493e 3774 ac3b
00000230: da3a bbbc e72e bb3a 2aa3 7bbe 14d3 00be
00000240: 1a7a 21be 57fa 7f3d 06aa 91bc c8e2 77bd
00000250: c33e d43c 2c4a bc3d 2b01 6c3e 905e 8c3e
00000260: b671 a13d f452 233d 1fcb 493b 0db0 c03c
00000270: d0db 973d 53b6 d13d 8240 8e3d b930 65bc
00000280: 9621 5c3d dc0f 8dbd 43b4 5ebd 190e 97bc
00000290: 5433 d8bd 5640 633e ffcd ca3d ff96 e03d
000002a0: 7726 b43b 6418 e23b de0d af3d 0e99 173d
000002b0: 9011 4e3d 8ac8 a93d 0656 6e3d 056e 3e3c
000002c0: fae7 973d 7a2a 093d aee6 363e d0bc 073e
000002d0: c0eb 1dbd fba1 943c ff66 043d 084b d4bb
000002e0: 0565 0e3d 6a02 f2bb 60e8 b43c 75f1 1b3d
000002f0: 365e 0d3e fa0b b93d a7b1 543d 6212 263d
00000300: c001 6e3e ae60 093f e922 ba3e 014f 0c3e
00000310: 978b 98bc e9fe a4bc 6427 7cbd 66d4 dfbd
00000320: 6af4 9abc 19f2 643d 8513 133c a1bc aabc
00000330: 4a45 9c3d 4e62 0fbd 8fe3 bc3c 5cd1 4e3d
00000340: 69df 78bb 9eec 6ebd 1485 ae3d a2b1 9dbd
00000350: 61da b43d 5152 a63d 6143 adbb eb6f bc3d
00000360: 1214 593e e1bd 043e cce9 983d a8bb ff3d
00000370: df53 033e d9c5 d53e cc7e a03e 04f7 423d
00000380: 25a0 07bd 66f4 6a3d 9626 49be feaa a8be
00000390: a757 a1bd 512b 4b3d 4ece 93bc 07cd 53bd
000003a0: 45bb ba3d 1ae0 bf3b a4bc 113d 16a0 9e3d
000003b0: 21ab 5dbc 8ac8 e8bd a843 16bd 4606 2abd
000003c0: fae4 a7bd c299 b8bc 5178 8abc 9a34 803d
000003d0: c302 e73d 89fb b13d 4c3e 9c3d 1c41 bd3d
000003e0: f549 563d 5fdd 1d3d 7721 823e 3a6c b53c
000003f0: 504c a1bd a58b 0a3d 1389 86be 030a a6be

bias f4 [88]
-0.06825412 -0.00528005 -0.08829473 0.18790276 0.32156244 0.055996563 0.076531745 -0.040365126
0.024833258 -0.08769854 -0.11709843 0.07224253 0.09892559 0.15070401 0.090339355 0.046059024
0.19263437 0.0689351 -0.045325167 -0.015133876 -0.016066875 0.007601735 -0.037772223 0.019836718
0.010039014 -0.09237427 0.06624094 0.04812487 -0.0051715737 -0.017363477 0.17912985 -0.043937434
-0.05650234 0.0140995495 0.23272307 -0.02073749 -0.11642883 0.06390477 0.11928107 -0.091264375
0.1004751 -0.004511617 0.10817466 0.032040566 0.16939594 0.1880024 0.2101725 -0.028882807
0.15415353 0.02088137 0.10448538 0.13449636 0.026715472 0.1780656 -0.071259946 0.028359387
0.15694222 0.20658378 0.1428655 0.073830985 -0.104792915 -0.028181065 -0.009648057 -0.17157044
0.27387768 -0.0586218 0.0949277 -0.1259982 -0.06416698 -0.005992741 0.04606901 -0.13935491
-0.013231035 0.08428705 0.094112106 0.03412626 0.017525556 -0.0069494164 0.0919704 0.18471807
-0.033484682 0.020586845 0.0069818404 0.16113326 0.26507175 -0.013044533 0.06197861 0.055828545
00000000: d1c8 8bbd 4504 adbb ded3 b4bd 9569 403e
00000010: d5a3 a43e a75c 653d adbc 9c3d e755 25bd
00000020: 1e6f cb3c 4b9b b3bd 4dd1 efbd e4f3 933d
00000030: 8099 ca3d 2752 1a3e d703 b93d 63a8 3c3d
00000040: f241 453e d92d 8d3d e2a6 39bd 14f4 77bc
00000050: ae9e 83bc fa17 f93b 0cb7 1abd 9d80 a23c
00000060: ad7a 243c b92e bdbd 54a9 873d 951e 453d
00000070: 4e76 a9bb da3d 8ebc d16d 373e bdf7 33bd
00000080: ff6e 67bd cc01 673c f54e 6e3e abe1 a9bc
00000090: 3d72 eebd 81e0 823d a249 f43d d1e8 babd
000000a0: e4c5 cd3d 30d6 93bb ad8a dd3d f83c 033d
000000b0: 2176 2d3e b383 403e 7637 573e a39b ecbc
000000c0: 6cda 1d3e 680f ab3c 6efc d53d 6ab9 093e
000000d0: 68da da3c d456 363e bcf0 91bd f251 e83c
000000e0: 76b5 203e b38a 533e 554b 123e b334 973d
000000f0: ab9d d6bd fadb e6bc e212 1ebc 29b0 2fbe
00000100: b239 8c3e 6a1d 70bd 7469 c23d ac05 01be
00000110: fa69 83bd c15e c4bb dcb2 3c3d 0eb3 0ebe
00000120: fcc6 58bc b09e ac3d d9bd c03d fac7 0b3d
00000130: c191 8f3c eeb7 e3bb fa5a bc3d bc26 3d3e
00000140: 3c27 09bd bea5 a83c ecc7 e43b 1e00 253e
00000150: 7cb7 873e bdb8 55bc 48dd 7d3d 79ac 643d

weight f4 [10, 88]
-0.69941247 -0.46088403 0.12740406 0.1721293 -0.12863213 -0.19399785 0.4047571 0.24905238
-0.017200325 -0.1366142 -0.11007579 -0.35772187 0.14600441 0.22749582 0.15528944 -0.45033312
0.08671192 0.13821217 0.19705153 -0.05780306 -0.007874063 -0.0140529405 -0.07858183 -0.3281632
-0.08855491 -0.14516692 0.037407298 0.21445197 -0.018294808 -0.17401718 -0.62077117 -0.005267347
-0.40257838 0.26380128 0.08860838 -0.49492356 -0.6371994 -0.26363677 -0.2374402 0.27985415
0.6154941 0.035236128 0.17313847 -0.0484161 -0.3497265 0.15433124 -0.36810824 0.05709464
0.14455225 0.006419246 -0.044253964 0.066663176 -0.34680775 -0.2922442 0.18651247 0.14823551
-0.06383739 0.09595281 0.22921069 -0.16542856 0.037690915 -0.08121523 -0.31546983 0.13855426
-0.19835228 0.24489173 -0.20417473 0.35429764 0.25436625 0.10285175 -0.53801787 -0.53854775
-0.53467005 0.08275262 -0.16149734 -0.5575958 -0.3261017 -0.7920533 0.2803442 0.15904373
0.18864878 0.10306065 0.123568036 -0.055806223 -0.82256806 -0.14256707 0.16127859 0.13915521
0.358652 0.058608163 0.3975367 0.6601603 -0.6724821 0.20417611 -0.1989698 -0.39320412
-0.077820554 0.14441903 0.1058543 0.038041126 -0.2855279 0.23294643 -0.22669424 -0.042208545
-0.29412276 -0.32247865 -0.44116145 -0.025871245 -0.041967396 0.10915703 -0.054688342 -0.5116312
-0.10201968 0.20054327 0.20003292 -0.3047803 0.012014477 -0.17547381 0.2258166 -0.05615404
0.23055781 -0.6133992 -0.7234893 0.22767465 0.08917715 -0.00023025021 0.39222905 0.16312636
0.423101 -0.0751261 -0.098753616 -0.30379257 -0.374378 0.20347455 -0.13600668 -0.25135893
-0.16126955 -0.3097278 -0.5541088 0.15879385 0.2716767 -0.004796229 -0.47600424 0.14879254
0.2053409 0.5135398 -0.19683298 -0.21657655 -0.24692161 0.057580438 0.11365389 0.057980675
0.435508 0.030932909 -0.46338856 -0.2904468 -0.2577881 0.05481589 -0.30311674 0.13125719
-0.039467517 -0.20653237 -0.01626749 0.29910994 -0.20953973 0.14479503 -0.004742612 0.15598918
-0.01572078 -0.25709292 0.3161185 0.32719713 -0.244705 0.0040042126 0.1604931 -0.15337805
-0.063353635 -0.36195353 0.1561185 -0.61377764 -0.12423701 0.14443585 0.25468442 -0.6322333
0.062530644 0.3545161 -0.006586503 0.28482828 -0.10458116 0.007260035 -0.117409654 -0.28576866
0.05302163 0.24476826 -0.15687335 -0.04844627 0.009080945 -0.11042235 -0.077846445 -0.10924765
-0.07584822 0.13237198 0.020288939 -0.07164493 0.061176937 -0.7661686 -0.8240527 0.039002415
0.3920924 0.22943862 0.077433795 0.1418521 0.11635492 0.16199414 -0.31109092 0.15598069
0.19090089 0.118447974 -0.05063776 0.123353586 0.087158956 -0.73137504 -0.28039533 -0.1626449
0.45922032 0.04256085 0.053176183 0.2469853 -0.38337472 -0.5686637 0.08382879 -0.15475465
-0.52245164 0.118674725 0.08724326 -0.22086379 0.07299817 0.031201197 0.22616138 0.27612355
0.05739549 0.28531712 -0.50810474 -0.31820884 0.15783271 0.31551522 -0.119223304 0.1922072
0.05073104 -0.37277904 0.097303666 0.4334668 -0.36469635 0.20303018 0.41554546 0.1569839
00000000: b20c 33bf fef8 ebbe 3676 023e aa42 303e
00000010: 24b8 03be 5fa7 46be 533c cf3e 9607 7f3e
00000020: b2e7 8cbc 98e4 0bbe 6a6f e1bd 5227 b7be
00000030: 2e82 153e aaf4 683e 3204 1f3e 1092 e6be
00000040: 0596 b13d 7e87 0d3e e0c7 493e e7c2 6cbd
00000050: 3702 01bc 4e3e 66bc 83ef a0bd 0205 a8be
00000060: 475c b5bd a3a6 14be 6538 193d 4c99 5b3e
00000070: fede 95bc 8f31 32be dcea 1ebf b699 acbb
00000080: c11e cebe f610 873e 4f78 b53d 9f66 fdbe
00000090: 801f 23bf 66fb 86be 8623 73be 0b49 8f3e
000000a0: 0591 1d3f c253 103d 364b 313e f64f 46bd
000000b0: 5a0f b3be 0209 1e3e af78 bcbe 12dc 693d
000000c0: 8105 143e 8a58 d23b a543 35bd b486 883d
000000d0: c990 b1be 08a1 95be 20fd 3e3e 0dcb 173e
000000e0: 2dbd 82bd e882 c43d 35b6 6a3e 1b66 29be
000000f0: ca61 1a3d 2c54 a6bd 4385 a1be 2be1 0d3e
00000100: dc1c 4bbe e6c4 7a3e 2e13 51be 8066 b53e
00000110: 4b3c 823e f0a3 d23d 8abb 09bf 44de 09bf
00000120: 23e0 08bf 357a a93d 8f5f 25be 99be 0ebf
00000130: cdf6 a6be 01c4 4abf 4689 8f3e 5cdc 223e
00000140: 252d 413e 7611 d33d 3d11 fd3d 1195 64bd
00000150: d293 52bf 1afd 11be 3726 253e b47e 0e3e
00000160: 3ca1 b73e 1d0f 703d ee89 cb3e 4400 293f
00000170: c927 2cbf 8b13 513e bdbe 4bbe 0d52 c9be
00000180: 6260 9fbd 95e2 133e 24ca d83d 03d1 1b3d
00000190: b730 92be 8289 6e3e 8922 68be dee2 2cbd
000001a0: 4297 96be ec1b a5be eadf e1be efef d3bc
000001b0: 01e6 2bbd b98d df3d e200 60bd 43fa 02bf
000001c0: b2ef d0bd 375b 4d3e 6ed5 4c3e 2a0c 9cbe
000001d0: 5ed8 443c 68af 33be 773c 673e c701 66bd
000001e0: 5917 6c3e bb07 1dbf 9836 39bf 8b23 693e
000001f0: 82a2 b63d 526f 71b9 3fd2 c83e 990a 273e
00000200: b2a0 d83e b6db 99bd 563f cabd b38a 9bbe
00000210: 79ae bfbe a25b 503e 5645 0bbe 1eb2 80be
00000220: d823 25be a494 9ebe 13da 0dbf db9a 223e
00000230: 3519 8b3e af29 9dbb d4b6 f3be 125d 183e
00000240: e344 523e 5877 033f 968e 49be 3ec6 5dbe
00000250: 05d9 7cbe 77d9 6b3d 5fc3 e83d 257d 6d3d
00000260: e8fa de3e 0367 fd3c 4441 edbe 71b5 94be
00000270: cdfc 83be a086 603d 1e32 9bbe 4968 063e
00000280: b1a8 21bd 397d 53be 6643 85bc f024 993e
00000290: 9591 56be 2645 143e ea67 9bbb a1bb 1f3e
000002a0: ddc8 80bc afa1 83be 49da a13e 6286 a73e
000002b0: f393 7abe c535 833b 4e58 243e 230f 1dbe
000002c0: 8dbf 81bd f951 b9be 87dd 1f3e 8820 1dbf
000002d0: f96f febd fee6 133e ff65 823e 0bda 21bf
000002e0: 1110 803d 2283 b53e 97d3 d7bb 03d5 913e
000002f0: a62e d6bd 96e5 ed3b 7974 f0bd 4550 92be
00000300: 352d 593d 88a4 7a3e 68a3 20be 996f 46bd
00000310: 3ec8 143c 1d25 e2bd f56d 9fbd 3bbd dfbd
00000320: 5056 9bbd 858c 073e fd34 a63c 94ba 92bd
00000330: ab94 7a3d a023 44bf 1ef5 52bf ffc0 1f3d
00000340: 56c0 c83e f5f1 6a3e 9c95 9e3d ad41 113e
00000350: 7d4b ee3d cbe1 253e 4f47 9fbe 67b9 1f3e
00000360: 867b 433e da94 f23d 8a69 4fbd cea0 fc3d
00000370: 6580 b23d 653b 3bbf fa8f 8fbe 628c 26be
00000380: ed1e eb3e 4954 2e3d 45cf 593d b7e9 7c3e
00000390: b149 c4be f293 11bf 6eae ab3d 0178 1ebe
000003a0: 64bf 05bf bc0b f33d 98ac b23d 1e2a 62be
000003b0: 1180 953d a799 ff3c d996 673e 1160 8d3e
000003c0: 8917 6b3d 1615 923e 2713 02bf 45ec a2be
000003d0: e69e 213e 368b a13e 592b f4bd f7d1 443e
000003e0: 5acb 4f3d e5dc bebe 2547 c73d 5cef dd3e
000003f0: 7bb9 babe 25e7 4f3e 60c2 d43e 63c0 203e

bias f4 [10]
-0.16391464 0.03975397 -0.040926848 -0.10635803 0.19743083 0.09579534 0.1320781 -0.030118154
-0.014541287 -0.07184469
00000000: 3dd9 27be 0fd5 223d e9a2 27bd 3dd2 d9bd
00000010: 4f2b 4a3e 5930 c43d 7b3f 073e 59ba f6bc
00000020: 943e 6ebc 4f23 93bd
